======================================
Skynnet Info: Longitud de los datos de la subred (datos,etiquetas): 41935 41935
Skynnet Info: Categorias de esta subred [0 1 2 3 4 5 6]
======================================
Model: "sequential"
_________________________________________________________________
 Layer (type)                Output Shape              Param #   
=================================================================
 conv2d (Conv2D)             (None, 26, 26, 17)        170       
                                                                 
 max_pooling2d (MaxPooling2D  (None, 13, 13, 17)       0         
 )                                                               
                                                                 
 conv2d_1 (Conv2D)           (None, 11, 11, 43)        6622      
                                                                 
 max_pooling2d_1 (MaxPooling  (None, 5, 5, 43)         0         
 2D)                                                             
                                                                 
 conv2d_2 (Conv2D)           (None, 3, 3, 43)          16684     
                                                                 
 max_pooling2d_2 (MaxPooling  (None, 1, 1, 43)         0         
 2D)                                                             
                                                                 
 flatten (Flatten)           (None, 43)                0         
                                                                 
 dense (Dense)               (None, 43)                1892      
                                                                 
 dense_1 (Dense)             (None, 7)                 308       
                                                                 
=================================================================
Total params: 25,676
Trainable params: 25,676
Non-trainable params: 0
_________________________________________________________________
None
========= entrenamiento de red original ================
Epoch 1/7

  1/918 [..............................] - ETA: 20:34 - loss: 1.9510 - accuracy: 0.1250
…
937/937 [==============================] - 11s 12ms/step - loss: 0.0349 - accuracy: 0.9888 - val_loss: 0.0452 - val_accuracy: 0.9865
 tiempo de training transcurrido (segundos) = 78.89172029495239
======================================
Skynnet Info: Longitud de los datos de la subred (datos,etiquetas): 35246 35246
Skynnet Info: Categorias de esta subred [4 5 6 7 8 9]
======================================
Model: "sequential_2"
_________________________________________________________________
 Layer (type)                Output Shape              Param #   
=================================================================
 conv2d_6 (Conv2D)           (None, 26, 26, 17)        170       
                                                                 
 max_pooling2d_6 (MaxPooling  (None, 13, 13, 17)       0         
 2D)                                                             
                                                                 
 conv2d_7 (Conv2D)           (None, 11, 11, 43)        6622      
                                                                 
 max_pooling2d_7 (MaxPooling  (None, 5, 5, 43)         0         
 2D)                                                             
                                                                 
 conv2d_8 (Conv2D)           (None, 3, 3, 43)          16684     
                                                                 
 max_pooling2d_8 (MaxPooling  (None, 1, 1, 43)         0         
 2D)                                                             
                                                                 
 flatten_2 (Flatten)         (None, 43)                0         
                                                                 
 dense_4 (Dense)             (None, 43)                1892      
                                                                 
 dense_5 (Dense)             (None, 6)                 264       
                                                                 
=================================================================
Total params: 25,632
Trainable params: 25,632
Non-trainable params: 0
_________________________________________________________________
None
========= entrenamiento de red original ================
Epoch 1/7

  1/771 [..............................] - ETA: 16:54 - loss: 1.7739 - accuracy: 0.1250
…
