…
Skynnet Info: Categorias de esta subred [0 1]
======================================
num patches=  36
Model: "model"
__________________________________________________________________________________________________
 Layer (type)                   Output Shape         Param #     Connected to                     
==================================================================================================
 input_1 (InputLayer)           [(None, 36, 36, 3)]  0           []                               
                                                                                                  
 data_augmentation (Sequential)  (None, 36, 36, 3)   0           ['input_1[0][0]']                
                                                                                                  
 patches (Patches)              (None, None, 108)    0           ['data_augmentation[0][0]']      
                                                                                                  
 patch_encoder (PatchEncoder)   (None, 36, 22)       3190        ['patches[0][0]']                
                                                                                                  
 layer_normalization (LayerNorm  (None, 36, 22)      44          ['patch_encoder[0][0]']          
 alization)                                                                                       
                                                                                                  
 multi_head_attention (MultiHea  (None, 36, 22)      16038       ['layer_normalization[0][0]',    
 dAttention)                                                      'layer_normalization[0][0]']    
                                                                                                  
 add (Add)                      (None, 36, 22)       0           ['multi_head_attention[0][0]',   
                                                                  'patch_encoder[0][0]']          
                                                                                                  
 layer_normalization_1 (LayerNo  (None, 36, 22)      44          ['add[0][0]']                    
 rmalization)                                                                                     
                                                                                                  
 dense_1 (Dense)                (None, 36, 512)      11776       ['layer_normalization_1[0][0]']  
                                                                                                  
 dropout (Dropout)              (None, 36, 512)      0           ['dense_1[0][0]']                
                                                                                                  
 dense_2 (Dense)                (None, 36, 22)       11286       ['dropout[0][0]']                
                                                                                                  
 dropout_1 (Dropout)            (None, 36, 22)       0           ['dense_2[0][0]']                
                                                                                                  
 add_1 (Add)                    (None, 36, 22)       0           ['dropout_1[0][0]',              
                                                                  'add[0][0]']                    
                                                                                                  
 layer_normalization_2 (LayerNo  (None, 36, 22)      44          ['add_1[0][0]']                  
 rmalization)                                                                                     
                                                                                                  
 multi_head_attention_1 (MultiH  (None, 36, 22)      16038       ['layer_normalization_2[0][0]',  
 eadAttention)                                                    'layer_normalization_2[0][0]']  
                                                                                                  
 add_2 (Add)                    (None, 36, 22)       0           ['multi_head_attention_1[0][0]', 
                                                                  'add_1[0][0]']                  
                                                                                                  
 layer_normalization_3 (LayerNo  (None, 36, 22)      44          ['add_2[0][0]']                  
 rmalization)                                                                                     
                                                                                                  
 dense_3 (Dense)                (None, 36, 512)      11776       ['layer_normalization_3[0][0]']  
                                                                                                  
 dropout_2 (Dropout)            (None, 36, 512)      0           ['dense_3[0][0]']                
                                                                                                  
 dense_4 (Dense)                (None, 36, 22)       11286       ['dropout_2[0][0]']              
                                                                                                  
 dropout_3 (Dropout)            (None, 36, 22)       0           ['dense_4[0][0]']                
                                                                                                  
 add_3 (Add)                    (None, 36, 22)       0           ['dropout_3[0][0]',              
                                                                  'add_2[0][0]']                  
                                                                                                  
 layer_normalization_4 (LayerNo  (None, 36, 22)      44          ['add_3[0][0]']                  
 rmalization)                                                                                     
                                                                                                  
 multi_head_attention_2 (MultiH  (None, 36, 22)      16038       ['layer_normalization_4[0][0]',  
 eadAttention)                                                    'layer_normalization_4[0][0]']  
                                                                                                  
 add_4 (Add)                    (None, 36, 22)       0           ['multi_head_attention_2[0][0]', 
                                                                  'add_3[0][0]']                  
                                                                                                  
 layer_normalization_5 (LayerNo  (None, 36, 22)      44          ['add_4[0][0]']                  
 rmalization)                                                                                     
                                                                                                  
 dense_5 (Dense)                (None, 36, 512)      11776       ['layer_normalization_5[0][0]']  
                                                                                                  
 dropout_4 (Dropout)            (None, 36, 512)      0           ['dense_5[0][0]']                
                                                                                                  
 dense_6 (Dense)                (None, 36, 22)       11286       ['dropout_4[0][0]']              
                                                                                                  
 dropout_5 (Dropout)            (None, 36, 22)       0           ['dense_6[0][0]']                
                                                                                                  
 add_5 (Add)                    (None, 36, 22)       0           ['dropout_5[0][0]',              
                                                                  'add_4[0][0]']                  
                                                                                                  
 layer_normalization_6 (LayerNo  (None, 36, 22)      44          ['add_5[0][0]']                  
 rmalization)                                                                                     
                                                                                                  
 flatten (Flatten)              (None, 792)          0           ['layer_normalization_6[0][0]']  
                                                                                                  
 dropout_6 (Dropout)            (None, 792)          0           ['flatten[0][0]']                
                                                                                                  
 dense_7 (Dense)                (None, 171)          135603      ['dropout_6[0][0]']              
                                                                                                  
 dropout_7 (Dropout)            (None, 171)          0           ['dense_7[0][0]']                
                                                                                                  
 dense_8 (Dense)                (None, 2)            344         ['dropout_7[0][0]']              
                                                                                                  
==================================================================================================
Total params: 256,745
Trainable params: 256,745
Non-trainable params: 0
__________________________________________________________________________________________________
…
======================================
num patches=  36
Model: "model_1"
__________________________________________________________________________________________________
 Layer (type)                   Output Shape         Param #     Connected to                     
==================================================================================================
 input_2 (InputLayer)           [(None, 36, 36, 3)]  0           []                               
                                                                                                  
 data_augmentation (Sequential)  (None, 36, 36, 3)   0           ['input_2[0][0]']                
                                                                                                  
 patches_1 (Patches)            (None, None, 108)    0           ['data_augmentation[0][0]']      
                                                                                                  
 patch_encoder_1 (PatchEncoder)  (None, 36, 22)      3190        ['patches_1[0][0]']              
                                                                                                  
 layer_normalization_7 (LayerNo  (None, 36, 22)      44          ['patch_encoder_1[0][0]']        
 rmalization)                                                                                     
                                                                                                  
 multi_head_attention_3 (MultiH  (None, 36, 22)      16038       ['layer_normalization_7[0][0]',  
 eadAttention)                                                    'layer_normalization_7[0][0]']  
                                                                                                  
 add_6 (Add)                    (None, 36, 22)       0           ['multi_head_attention_3[0][0]', 
                                                                  'patch_encoder_1[0][0]']        
                                                                                                  
 layer_normalization_8 (LayerNo  (None, 36, 22)      44          ['add_6[0][0]']                  
 rmalization)                                                                                     
                                                                                                  
 dense_10 (Dense)               (None, 36, 512)      11776       ['layer_normalization_8[0][0]']  
                                                                                                  
 dropout_8 (Dropout)            (None, 36, 512)      0           ['dense_10[0][0]']               
                                                                                                  
 dense_11 (Dense)               (None, 36, 22)       11286       ['dropout_8[0][0]']              
                                                                                                  
 dropout_9 (Dropout)            (None, 36, 22)       0           ['dense_11[0][0]']               
                                                                                                  
 add_7 (Add)                    (None, 36, 22)       0           ['dropout_9[0][0]',              
                                                                  'add_6[0][0]']                  
                                                                                                  
 layer_normalization_9 (LayerNo  (None, 36, 22)      44          ['add_7[0][0]']                  
 rmalization)                                                                                     
                                                                                                  
 multi_head_attention_4 (MultiH  (None, 36, 22)      16038       ['layer_normalization_9[0][0]',  
 eadAttention)                                                    'layer_normalization_9[0][0]']  
                                                                                                  
 add_8 (Add)                    (None, 36, 22)       0           ['multi_head_attention_4[0][0]', 
                                                                  'add_7[0][0]']                  
                                                                                                  
 layer_normalization_10 (LayerN  (None, 36, 22)      44          ['add_8[0][0]']                  
 ormalization)                                                                                    
                                                                                                  
 dense_12 (Dense)               (None, 36, 512)      11776       ['layer_normalization_10[0][0]'] 
                                                                                                  
 dropout_10 (Dropout)           (None, 36, 512)      0           ['dense_12[0][0]']               
                                                                                                  
 dense_13 (Dense)               (None, 36, 22)       11286       ['dropout_10[0][0]']             
                                                                                                  
 dropout_11 (Dropout)           (None, 36, 22)       0           ['dense_13[0][0]']               
                                                                                                  
 add_9 (Add)                    (None, 36, 22)       0           ['dropout_11[0][0]',             
                                                                  'add_8[0][0]']                  
                                                                                                  
 layer_normalization_11 (LayerN  (None, 36, 22)      44          ['add_9[0][0]']                  
 ormalization)                                                                                    
                                                                                                  
 multi_head_attention_5 (MultiH  (None, 36, 22)      16038       ['layer_normalization_11[0][0]', 
 eadAttention)                                                    'layer_normalization_11[0][0]'] 
                                                                                                  
 add_10 (Add)                   (None, 36, 22)       0           ['multi_head_attention_5[0][0]', 
                                                                  'add_9[0][0]']                  
                                                                                                  
 layer_normalization_12 (LayerN  (None, 36, 22)      44          ['add_10[0][0]']                 
 ormalization)                                                                                    
                                                                                                  
 dense_14 (Dense)               (None, 36, 512)      11776       ['layer_normalization_12[0][0]'] 
                                                                                                  
 dropout_12 (Dropout)           (None, 36, 512)      0           ['dense_14[0][0]']               
                                                                                                  
 dense_15 (Dense)               (None, 36, 22)       11286       ['dropout_12[0][0]']             
                                                                                                  
 dropout_13 (Dropout)           (None, 36, 22)       0           ['dense_15[0][0]']               
                                                                                                  
 add_11 (Add)                   (None, 36, 22)       0           ['dropout_13[0][0]',             
                                                                  'add_10[0][0]']                 
                                                                                                  
 layer_normalization_13 (LayerN  (None, 36, 22)      44          ['add_11[0][0]']                 
 ormalization)                                                                                    
                                                                                                  
 flatten_1 (Flatten)            (None, 792)          0           ['layer_normalization_13[0][0]'] 
                                                                                                  
 dropout_14 (Dropout)           (None, 792)          0           ['flatten_1[0][0]']              
                                                                                                  
 dense_16 (Dense)               (None, 171)          135603      ['dropout_14[0][0]']             
                                                                                                  
 dropout_15 (Dropout)           (None, 171)          0           ['dense_16[0][0]']               
                                                                                                  
 dense_17 (Dense)               (None, 2)            344         ['dropout_15[0][0]']             
                                                                                                  
==================================================================================================
Total params: 256,745
Trainable params: 256,745
Non-trainable params: 0
__________________________________________________________________________________________________
…
