25000 Training sequences
25000 Validation sequences
-----ESTRUCTURA RED ORIGINAL------
Model: "model"
_________________________________________________________________
 Layer (type)                Output Shape              Param #   
=================================================================
 input_1 (InputLayer)        [(None, 200)]             0         
                                                                 
 token_and_position_embeddin  (None, 200, 16)          323200    
 g (TokenAndPositionEmbeddin                                     
 g)                                                              
                                                                 
 transformer_block (Transfor  (None, 200, 16)          3296      
 merBlock)                                                       
                                                                 
 global_average_pooling1d (G  (None, 16)               0         
 lobalAveragePooling1D)                                          
                                                                 
 dropout_2 (Dropout)         (None, 16)                0         
                                                                 
 dense_2 (Dense)             (None, 10)                170       
                                                                 
 dropout_3 (Dropout)         (None, 10)                0         
                                                                 
 dense_3 (Dense)             (None, 2)                 22        
                                                                 
=================================================================
Total params: 326,688
Trainable params: 326,688
Non-trainable params: 0
_________________________________________________________________
None
----------------------------------
Entrenamos sin someter a validacion pues eso lo haremos despues
training orig model...
…
